…
Epoch 8/10
13934/13934 [==============================] - 9s - loss: 0.7162 - acc: 0.6826 - val_loss: 0.7248 - val_acc: 0.6792
Epoch 9/10
13934/13934 [==============================] - 9s - loss: 0.7082 - acc: 0.6892 - val_loss: 0.7202 - val_acc: 0.6890
Epoch 10/10
13934/13934 [==============================] - 9s - loss: 0.7001 - acc: 0.6940 - val_loss: 0.7226 - val_acc: 0.6885
_________________________________________________________________
Layer (type)                 Output Shape              Param #   
=================================================================
input_6 (InputLayer)         (None, 32, 32, 3)         0         
_________________________________________________________________
conv2d_6 (Conv2D)            (None, 28, 28, 10)        760       
_________________________________________________________________
max_pooling2d_6 (MaxPooling2 (None, 14, 14, 10)        0         
_________________________________________________________________
flatten_6 (Flatten)          (None, 1960)              0         
_________________________________________________________________
dense_6 (Dense)              (None, 3)                 5883      
=================================================================
Total params: 6,643
Trainable params: 6,643
Non-trainable params: 0
_________________________________________________________________
</code></pre><h1 id="optimize2-增加神经网络的层数"><a href="#optimize2-增加神经网络的层数" class="headerlink" title="optimize2 增加神经网络的层数"></a>optimize2 增加神经网络的层数</h1><p>我们在模型中多添加几层并且提高卷几层的输出维度，这次结果得到显著提升：0.750904</p>
…
13934/13934 [==============================] - 43s - loss: 0.5165 - acc: 0.7852 - val_loss: 0.6458 - val_acc: 0.7354
Epoch 9/10
13934/13934 [==============================] - 46s - loss: 0.4826 - acc: 0.7986 - val_loss: 0.6206 - val_acc: 0.7467
Epoch 10/10
13934/13934 [==============================] - 45s - loss: 0.4530 - acc: 0.8130 - val_loss: 0.5984 - val_acc: 0.7569
_________________________________________________________________
Layer (type)                 Output Shape              Param #   
=================================================================
input_15 (InputLayer)        (None, 32, 32, 3)         0         
_________________________________________________________________
conv2d_31 (Conv2D)           (None, 28, 28, 50)        3800      
_________________________________________________________________
max_pooling2d_23 (MaxPooling (None, 14, 14, 50)        0         
_________________________________________________________________
conv2d_32 (Conv2D)           (None, 10, 10, 100)       125100    
_________________________________________________________________
max_pooling2d_24 (MaxPooling (None, 5, 5, 100)         0         
_________________________________________________________________
conv2d_33 (Conv2D)           (None, 1, 1, 100)         250100    
_________________________________________________________________
flatten_15 (Flatten)         (None, 100)               0         
_________________________________________________________________
dense_7 (Dense)              (None, 3)                 303       
=================================================================
Total params: 379,303
Trainable params: 379,303
Non-trainable params: 0
_________________________________________________________________
</code></pre><h1 id="输出结果"><a href="#输出结果" class="headerlink" title="输出结果"></a>输出结果</h1><figure class="highlight python"><table><tr><td class="gutter"><pre><div class="line">1</div><div cl
…
